work/steady-cylinder-2d-old/latest_model.pth (torch, 53390 bytes, 18 tensors)

layers.0.weight f4 [40, 2]
00000000: a212 fb3e 83de 013e 0e94 4e3d 82fe 0abf
00000010: f18c b9be 99cd 033f a3f9 e03e 1f86 77be
00000020: 30f2 503d ce01 e8be 4e6c 0a3d 3fbc 83be
00000030: 1ac0 233f 39b4 b2be 0db6 ecbe 279a 69bd
00000040: 82d5 bf3d c165 c7bd 63c6 fd3e 5fb8 54be
00000050: 9ca8 4c3e deb5 96be a5b1 e4be 4bbf d83d
00000060: 870b e33e 6f41 33bc b1e3 aabe 8c42 12bf
00000070: 7c5b ecbe 6ec2 d83e 3a77 cd3d 407b d2be
00000080: df92 04bf ad69 c5be 1ce1 9e3b 6db4 063f
00000090: 9bf1 babe fbb6 14be 4591 9fbd ca54 11bf
000000a0: 0326 cfbe 972a b2bc 9fa3 233e fd50 9bbe
000000b0: 9b41 83be a09c e1be 19e2 a73e d004 1cbe
000000c0: f225 d6bd 9494 cbbe 7a71 cf3e a438 de3e
000000d0: 2280 18be 0e50 0d3f beda 89bc bf30 f4be
000000e0: 0fc0 cebd ffe6 afbe 80e5 133f ee12 b33e
000000f0: 3252 58be 89f2 d33e eef6 03bf ee4b 86be
00000100: 0442 e3be a302 d03e 3e6c db3e d131 0dbe
00000110: d443 08bf 0e09 b73d d16e 2b3e fe33 07bf
00000120: cdad bebe 9418 8ebe d041 933e 7316 ad3e
00000130: 4f06 65be dc29 943e 6889 713e da34 9fbe
0.49037653 0.12682538 0.050434165 -0.542946 -0.36240342 0.5148559 0.43940458 -0.24172257
0.051012218 -0.45313877 0.033794694 -0.25729558 0.63965 -0.34903124 -0.46232644 -0.057031777
0.09366895 -0.09736205 0.4956542 -0.20773457 0.19986194 -0.2943563 -0.44666782 0.10583361
0.44344732 -0.010940894 -0.3337684 -0.5713279 -0.46163547 0.42335838 0.10032506 -0.41109657
-0.5178661 -0.38557187 0.0048486125 0.5261906 -0.36512455 -0.14522927 -0.0779138 -0.5677
-0.40458688 -0.021748824 0.15980385 -0.30335227 -0.2563599 -0.44064808 0.32789686 -0.15236211
-0.10456456 -0.39761794 0.40516263 0.43402588 -0.14892629 0.5520028 -0.016827937 -0.4769344
-0.10095226 -0.34355924 0.57772064 0.3497538 -0.21125105 0.41395977 -0.5154866 -0.26229805
-0.44386303 0.40627012 0.4285602 -0.13788535 -0.532285 0.08937274 0.16741492 -0.5281371
-0.37241974 -0.27753127 0.28761148 0.3380619 -0.22365688 0.28938186 0.23587573 -0.3109501

layers.0.bias f4 [40]
00000000: f05c 19be 5783 efbc 0f63 543d c998 d2bd
00000010: 51b0 8e3d 853e cb3d ad35 23bd 7cd2 3c3d
00000020: f0e6 0d3e b4ec 48bc 8c40 93bc d1ff a5bc
00000030: 35cf ebbd ae5a 5d3d 7160 acbc 86aa ecbc
00000040: 1af9 163e 47d5 8dbd bdeb af3d df11 4e3d
00000050: 32a7 0fbd adc7 63bc c7bc e23d 1bcc f93c
00000060: 872f 8b3d 4727 55be 9ba1 363c c722 b83d
00000070: 0862 1f3e 7e2c 11be 9376 93bd a1d7 213e
00000080: 75cd 94bd 0aa6 d73c 51bb fd3c 3a02 2dbe
00000090: 91b4 96bc 8c0f 0dbe b38a 10bd c513 0b3e
-0.14976859 -0.029237432 0.051852282 -0.10283048 0.069672234 0.09924034 -0.03984611 0.04609917
0.13857627 -0.012263466 -0.017975114 -0.020263584 -0.11514131 0.054041557 -0.02104208 -0.028889906
0.14743462 -0.06925445 0.085898854 0.050310012 -0.03507156 -0.013902587 0.11071163 0.030492833
0.067961745 -0.20815764 0.011146928 0.08991008 0.1556474 -0.14177129 -0.072003506 0.15804912
-0.0726575 0.02632429 0.030973108 -0.1689538 -0.018396648 -0.13775462 -0.035288524 0.1358176

layers.2.weight f4 [40, 40]
00000000: 1650 f43e 60b9 e53c ca51 79be e01f b03e
00000010: 5931 43be 0ba9 63be 9cfe 433e 38e7 76bd
00000020: bc4a 37be a5bd 893e 3d9d 6b3e b03d 96be
00000030: 3db5 bd3e 563d cbbc ccbe f6bc 395e 453e
00000040: ef78 fbbe 5b4f 2fbe 3e29 e0be 27d1 6cbd
00000050: d732 ed3d 3297 7dbc b11d 0ebe 4b64 a23e
00000060: 825c 7bbe 4a40 1b3f 6320 a13d 804f 36be
00000070: d70c c5be a541 c53d 06de 043e 5431 bcbe
00000080: 0e84 fabd 3c7f 19be 1f66 debe adaa 29be
00000090: 7de6 fc3c 0501 793e e38d 65bd 7b18 70be
000000a0: 1bb7 8dbd e4d0 c3be db44 b33e 8fc1 bbbe
000000b0: 8b69 6dbe 9229 c9bd 3176 bcbd d126 6abe
000000c0: 4414 98be 66eb cebd 8e40 22be 517f 103e
000000d0: 3329 c9bd 4535 d2be 5077 96bc 7094 7bbe
000000e0: 66ed 2cbd 5980 923e 42ae eabd 3961 d3be
000000f0: a76c 49be 77a9 5ebe a923 a2be c9a7 523e
00000100: 288d 0bbd ab2c 883c e8d4 723e e202 f3bd
00000110: 7455 2ebd 6db4 7d3e 2422 d4bc 5f7f 86bd
00000120: bdca 8e3d 006d 1b3e 8398 883e 53bf 45be
00000130: 52e0 69be 56bf 8f3e 9425 be3c 24a5 1b3e
00000140: a900 7e3d cd81 25be 3168 573e 9f70 533d
00000150: 8195 32bd 4389 ebbe f8f2 373c faab 7d3d
00000160: 44e0 4dbe 9f4d 38be fc92 8fbe 43c2 763e
00000170: f28a 8fbe a047 ea3c a2ef e13e 5bb4 16be
00000180: a50c 543e d576 833e fffe ceba 16c8 79bd
00000190: 068a 03bc 733d adbe 5d01 21be 748a 68bd
000001a0: cdd8 acbe 5d02 753e 8fb5 be3e 15a8 edbc
000001b0: bb8d 88be d3b4 19be 4e95 ab3e 9022 86bb
000001c0: a5c9 d63e 5dbf b8be bada b03e 10a4 24be
000001d0: 51e3 293e 0707 5abe 34bc e83e c6aa e2be
000001e0: 0d27 76be fab5 8f3e 1cf6 38bd 5174 9b3d
000001f0: 684c e6bc ff87 963e 1841 1c3e eff8 14be
00000200: 725d e33d e1d9 18bd e7c3 9d3e 482f 693d
00000210: ac52 95be a20a cc3e 3629 893d 4cc7 e53e
00000220: 9d79 7a3e d1a9 d5be 414b 823e 2e33 193e
00000230: 715e 42bb 322d 283e 6e3e a23e ad0d 41be
00000240: 0e1d 093e 676e 9cbe 4292 dcbe bf11 4d3e
00000250: 4fab 8f3d 0ebe 3ebe 8e15 d7be 5c1e 943e
00000260: 891d a6be 22c6 18bd 3f23 bf3d 911e ee3d
00000270: 62f2 ba3d da17 92bd a0ff aabe 4349 e23b
00000280: fbb8 7f3c 2c05 e0be b482 213e 3989 74be
00000290: bf2a 90be 27a1 f6be 9b82 31be 62e6 3abd
000002a0: 9acc 313e 2f26 8abe b76e c1bc 6b34 44be
000002b0: 4158 4b3e 3ae9 b0be 5eed 2a3d 4fc7 81be
000002c0: 21a6 eb3c 8c14 b03e a2c4 703d 64dc 6ebe
000002d0: a5c5 2bbe e15c 6abe 6010 c7be c34d e3bd
000002e0: ad7a 20be 3f8c 963e e9d4 423e aeb6 bebe
000002f0: d56c f0be 3362 103d d996 143f dddb 403e
00000300: 140e 253e 8b33 a43c 7be2 853e 4230 0fbe
00000310: 3fb9 5ebd b5e0 6cbd a70f 9d3e 8c53 77be
00000320: 0d34 5bbe 4412 1e3e 21ec 7d3e 0004 1bbe
00000330: 05e1 53be d79e cbbd 185f 55bd 6bca fdbd
00000340: 22d2 043e a741 34be 4a57 f0bb 5594 643d
00000350: 62ee c3bd 2a1b c1bc 858d a63e 0d40 9bbd
00000360: f0a5 e7bc 0eaa 14be 0b53 5d3d a77e 92be
00000370: 65d1 833e b145 8bbe a790 3ebd ebba 77be
00000380: 56b6 15bd 6eef 283e b651 debd 5f53 c6be
00000390: e141 84be 9ccf 6fbe c5f5 fe3e 3b89 15bd
000003a0: 6b9a ab3e ab9f 1f3e 0865 943e 979d 83be
000003b0: 0889 613c 5d73 f63d d4ae 433d f17e d1be
000003c0: f34e 733d 7ffa 04bf 0c10 8f3e 5a97 77be
000003d0: a8dc ecbe 0c0b babe a133 043e 2b92 a1bb
000003e0: 204e 9bbe 1bc9 90be e3a0 31be a22b 993e
000003f0: 27f4 b23d 61eb 74be be6e 013e 8f71 f1be
0.4771735 0.028042495 -0.24347606 0.3439932 -0.19061793 -0.22232454 0.19140095 -0.0602791
-0.17899603 0.269025 0.230092 -0.2934394 0.37052336 -0.02480952 -0.030120276 0.19274224
-0.49115703 -0.17120115 -0.43781465 -0.05781665 0.115819626 -0.015477942 -0.13878514 0.31717142
-0.24547008 0.6064497 0.078675054 -0.17803764 -0.3848636 0.09631661 0.1297532 -0.36756384
-0.12232219 -0.14989942 -0.43437287 -0.16569014 0.030871624 0.24316795 -0.056043517 -0.23446839
-0.0691969 -0.38245308 0.3501347 -0.3667111 -0.23184793 -0.09822382 -0.09202231 -0.2286637
-0.2970296 -0.101034924 -0.15844938 0.14111067 -0.09822311 -0.41056266 -0.01836744 -0.24568343
-0.04221859 0.28613546 -0.11459018 -0.41285113 -0.19670354 -0.21744333 -0.31667832 0.20571817
-0.034070164 0.016622862 0.2371403 -0.11865784 -0.042561963 0.24775858 -0.025895186 -0.06567263
0.06972263 0.15178299 0.26678857 -0.19311266 -0.22839478 0.28075665 0.023211278 0.15199715
0.06201235 -0.16162796 0.2103584 0.051621076 -0.04359961 -0.4600316 0.011227362 0.061931588
-0.20105082 -0.1799836 -0.28041828 0.24097542 -0.28035694 0.028598607 0.44128138 -0.14717238
0.20707949 0.256766 -0.0015792547 -0.060981832 -0.008028513 -0.33835945 -0.15723176 -0.056772664
-0.33759156 0.23926683 0.37247893 -0.029010812 -0.26670632 -0.15010385 0.33512348 -0.0040934756
0.41950718 -0.360835 0.34541875 -0.1607821 0.1659062 -0.21291743 0.45456088 -0.44270915
-0.24038334 0.28068525 -0.045156583 0.07590545 -0.028112605 0.29400632 0.15259206 -0.14548086
0.11101808 -0.03731716 0.30813524 0.056929857 -0.29164636 0.39851862 0.066973135 0.44878614
0.24460454 -0.41731122 0.2544804 0.1496093 -0.0029658342 0.1642349 0.31688255 -0.18852873
0.1338999 -0.3055298 -0.43080336 0.20026301 0.070150964 -0.18627188 -0.42008632 0.28929412
-0.3244441 -0.03729833 0.093328945 0.11626924 0.09128262 -0.071334556 -0.3339815 0.006905706
0.015608068 -0.43753946 0.15772516 -0.23880471 -0.28157613 -0.48169824 -0.17334978 -0.045629866
0.17363206 -0.26982257 -0.023612363 -0.19160621 0.19857885 -0.34552938 0.041730277 -0.25347373
0.02876574 0.34390676 0.058781274 -0.2332626 -0.16774614 -0.22886993 -0.3887968 -0.11098816
-0.15671797 0.29403874 0.19026531 -0.3724875 -0.46958032 0.0352499 0.58042675 0.18833871
0.16118652 0.020044109 0.26149353 -0.13983253 -0.054375883 -0.057831485 0.30676004 -0.24152964
-0.21406575 0.15436655 0.24797107 -0.15138245 -0.20691307 -0.09942406 -0.05209264 -0.12392124
0.12970784 -0.1760317 -0.0073346244 0.055805523 -0.09566952 -0.023572523 0.32529846 -0.07580576
-0.028277367 -0.14517996 0.054034274 -0.28612253 0.25745693 -0.27201608 -0.04652467 -0.24192397
-0.036550842 0.16497585 -0.10855429 -0.38735482 -0.25831512 -0.2341904 0.49796882 -0.036507826
0.3351625 0.15588252 0.2898333 -0.2570617 0.013765581 0.120337225 0.04777415 -0.4091716
0.059401464 -0.51944727 0.2794193 -0.2417883 -0.46262097 -0.36336553 0.1291032 -0.0049307547
-0.30333042 -0.2827843 -0.1734653 0.29916102 0.087379746 -0.23917915 0.12639901 -0.4715695

layers.2.bias f4 [40]
00000000: 9ff8 a6bd 31e3 b43c b796 40bd 1642 613d
00000010: e31c 38bc 38c1 66bd 3082 973c 3574 603d
00000020: d37f ea3d f203 e63c d952 283c 3538 46bd
00000030: c46b d8bd d7d9 b3bc b38a d939 26c3 a7bd
00000040: e87d 8a3d ac68 6b3d 02f8 0f3d b1c0 f63d
00000050: c939 f7bd b901 903d 1d75 14be dee7 323d
00000060: 731b 24bc 00b1 363e 8e57 0bbc 2464 29bd
00000070: b2fc aebd 209c cbbb fd03 9cbd b295 103e
00000080: 3d0e 29bd 4dc1 c43d 3a1e c5bd dafb c33c
00000090: 8f62 8dbe 200a 0b3c 3382 37bd 6acc 123e
-0.081528895 0.02208099 -0.047018733 0.054994665 -0.011237356 -0.05633661 0.018494695 0.054798324
0.11450162 0.028078053 0.010273659 -0.048393447 -0.1056743 -0.02195446 0.00041492804 -0.081915185
0.06762296 0.05747287 0.035148628 0.12048472 -0.120715685 0.070315786 -0.144978 0.043678157
-0.01001631 0.17840958 -0.008504761 -0.041355267 -0.085442916 -0.00621368 -0.07617948 0.14119604
-0.041273344 0.09607182 -0.09624906 0.023923803 -0.27614257 0.008486301 -0.044801902 0.1433579

layers.4.weight f4 [40, 40]
00000000: 05b3 a73d d161 cbbd b9bb 173e 9ab5 f7bd
00000010: ab7c 9c3e 1fc6 fabd 2bf8 043e 6cd9 1bbe
00000020: 938a 783d 1deb 26bc b563 7d3e 0941 b6bd
00000030: f8c0 48be 8937 48bd 1821 8b3d d9e9 aebc
00000040: 46a7 aebd 855b 8abe 1617 a03e 769c 703d
00000050: 74f1 72be 147c 553e 090b 633d 4661 02be
00000060: 32ca edbd c7ed 633e 23e3 67be 5125 8cbe
00000070: 5d1f 33bd a9f4 0b3e 546a ad3c 06ed 233e
00000080: d7ce 5ebe cdb5 913e 80e5 9ebe d86a 1d3d
00000090: 9fa9 29bd 9896 84bd ee00 a7bd 3f01 4a3e
000000a0: 1a89 873d ae15 dcb9 db7d d33c 3b9d a03d
000000b0: bea9 c6bd 8b1c 8bbe 248c 13be 9483 ab3e
000000c0: a3b5 a03d 0887 393e 41f1 583c c6c6 dc3d
000000d0: d847 26be 2852 a2be cf79 d1bd 2979 6b3e
000000e0: c692 093e 86e0 773e bdc6 013e a6f5 b13b
000000f0: 9cb0 803d a719 213c 3f4b 4bbc c6cc 763e
00000100: ec72 9d3e eec6 c33d 4bda 36be 47c1 61be
00000110: 004c 96be aca1 0d3e 382e 5e3d f8d2 4f3e
00000120: 61f7 d33d 55ae 7abc 9050 adbe 5386 e83e
00000130: 6e91 aeba d06c 9dbc cf0f 873e ca80 14be
00000140: 4725 a33e 49b7 8b3e 5ba5 07be bee7 b5be
00000150: f3dc ab3e 05db d5bd 90e5 653e 2661 c0be
00000160: 38c9 c23b 34cb b3bd 4d7b 403e 08b5 4e3d
00000170: 2d4a 853e ab19 6e3e 534c 923e bbb2 a9be
00000180: 1969 99be 6ef9 8bbe f14a 52be 318d 80be
00000190: 8da8 9e3c 6678 5e3d a8f2 d3bc 7cd9 36be
000001a0: 6d0c 863e e1cb 77be 0e1d acbe 48cb 31bc
000001b0: 5084 e83d 6351 333e b65e f2bc 91af 023e
000001c0: 0f7d 073d 9c71 b6bd ec37 8d3e 478a 44be
000001d0: 81d1 df3d dbe2 123e 4d79 a33e 1f69 623d
000001e0: 0706 abbb 3522 a4be 6630 06bf 0a93 92bd
000001f0: 0105 c5be 1cbb 12bd df35 4fbe 2bf4 05be
00000200: 7e02 94bc 1b55 873d 4f47 7cbd 54b3 a63b
00000210: 47e2 4e3e 21ed 5bbe 7688 c93e a6a0 813e
00000220: f362 323d efc5 723e cfb1 7fbd dad3 ecbd
00000230: 27df ab3e b026 85be 697b 82be e09d 4a3d
00000240: 4ae9 333e 833c 803e c69f c63e 797e 5d3e
00000250: 364f 1d3e d24e a7be 1667 aa3d ec18 5c3d
00000260: 8a98 ae3e 2d0b 6c3e d0b9 e8bd 0930 053d
00000270: 1068 1e3a 7673 3b3e d46e 663d 1118 76be
00000280: 3fa1 40bf 9d14 323e 56d2 3e3e aade de3e
00000290: ab20 f0bc 85d3 0dbe 163e c63d 4828 143f
000002a0: 433a 53bc 7a61 44be 9cfb 48be 6695 80be
000002b0: 8531 f6be dfea b83e 9b21 f0be 6a61 8ebe
000002c0: 105b af3e fd53 b0bd c0e7 5ebe a0a6 8c3e
000002d0: 6961 0cbf cd55 5f3e 5b20 ebbd a1d5 143f
000002e0: 1c43 c9be 7140 5e3e 230f 81be b3b2 2fbf
000002f0: bd90 943e e733 ecbe 5d2c 39be 6d18 243f
00000300: 0df8 7c3e 9281 553f e3db d3be f8a9 6b3e
00000310: 1dda 8fbe 4c6f e1bd fd30 3dbf e76c da3d
00000320: 372d 913d 3d8e 99be b869 8cbe 5b77 773e
00000330: 7fa2 45bd 7e8d 74bd 5a3b 84be f95e 2e3d
00000340: 8cb9 e4bc 3681 f9bd 09d9 383d cc96 973e
00000350: 20a5 a73d 7ac6 6abe 8ff5 633e ea2a de3e
00000360: 8b6f 77be db34 01bd f8d0 16bd e92f d6bd
00000370: a80f a13e 02df 64be 02ef a7be dbdb 2c3c
00000380: 2c56 d53e 59a3 df3d d36e ae3d e05d 15be
00000390: 924a a7be 97c9 463e 636c 353e a814 b1be
000003a0: 47e1 f23c 910f 073d 4c4e 10be 4b5c 1a3e
000003b0: c1f2 823e 8808 97be 509a 853d 68b8 bf3d
000003c0: 337f e13d 61a1 aabe e7f1 843e 82c9 993d
000003d0: 7f11 24be 3b2a 863e 47a9 95bd 663e 1b3c
000003e0: 3ed8 c8be 4e8e c4be debf 8b3d 9214 8d3c
000003f0: 4f77 0a3e 4924 03be 63ec 36be fb7f 0e3e
0.08188442 -0.099307664 0.14817704 -0.120951846 0.30563864 -0.1224482 0.12985294 -0.15219659
0.06067903 -0.010187891 0.24745066 -0.08899123 -0.19604862 -0.048881087 0.067934215 -0.021351742
-0.085279986 -0.2702295 0.31267613 0.058742963 -0.2372492 0.20848113 0.055430446 -0.1273242
-0.11610831 0.22258674 -0.2264524 -0.2737222 -0.043731082 0.13667549 0.021168865 0.16008386
-0.2175859 0.28459015 -0.3103447 0.038431972 -0.04142153 -0.06474036 -0.08154474 0.19727038
0.06617947 -0.00041977823 0.025816849 0.07842489 -0.097003445 -0.27170214 -0.14408928 0.33498824
0.078471445 0.18117917 0.013241113 0.107801005 -0.16238344 -0.31703305 -0.10228311 0.22995438
0.13434896 0.24206743 0.12673469 0.005430895 0.062836856 0.009832776 -0.012408077 0.24101552
0.3075174 0.09559427 -0.1785671 -0.22046386 -0.29354858 0.13831204 0.054243296 0.20295322
0.10349918 -0.015300353 -0.33850527 0.4541498 -0.0013318488 -0.019216925 0.26379248 -0.14502254
0.31864378 0.27288273 -0.13246672 -0.35528368 0.33567008 -0.10442165 0.22450852 -0.37574118
0.0059443973 -0.08778992 0.18797036 0.050465614 0.26033154 0.23251979 0.28573856 -0.33144173
-0.29962996 -0.27338737 -0.205364 -0.2510772 0.01936748 0.05431404 -0.025872543 -0.17856401
0.26181355 -0.24198867 -0.33615917 -0.010851689 0.113533616 0.17511515 -0.029586177 0.12762286
0.03307825 -0.08908388 0.27581728 -0.19193374 0.109286316 0.14344351 0.31928483 0.055276033
-0.0052192244 -0.32057348 -0.524176 -0.07156952 -0.3848038 -0.035822973 -0.20235394 -0.13081424
-0.018067595 0.066080295 -0.061591443 0.0050872955 0.20203505 -0.21477176 0.39361924 0.25317878
0.043551397 0.23708318 -0.06242543 -0.11563845 0.3356869 -0.2600608 -0.2548478 0.049466968
0.17569461 0.25046167 0.38793772 0.21630277 0.15362248 -0.32677323 0.08320443 0.053734705
0.34100753 0.23051138 -0.11363566 0.032516513 0.0006042728 0.18305764 0.056258038 -0.24032618
-0.7524604 0.17390676 0.18634924 0.43529254 -0.029312452 -0.1385022 0.09679811 0.57873964
-0.012892309 -0.1917781 -0.19627231 -0.25113982 -0.48084655 0.36116692 -0.4690064 -0.27808696
0.34249163 -0.086097695 -0.21768093 0.27470875 -0.54836136 0.21810074 -0.11480781 0.5813847
-0.39309013 0.2170427 -0.2520686 -0.6863205 0.29016677 -0.46133348 -0.1808333 0.6409977
0.24703999 0.83400834 -0.41378698 0.23014057 -0.28096095 -0.11007556 -0.73902875 0.10665303
0.07088702 -0.29991332 -0.27424407 0.24166624 -0.04825067 -0.05970525 -0.25826532 0.04257104
-0.027920507 -0.12182848 0.045128856 0.29607236 0.08185792 -0.22927275 0.22261642 0.43392116
-0.24163644 -0.031544548 -0.036820382 -0.10458357 0.31457257 -0.22350696 -0.32799536 0.0105504645
0.41667306 0.10919828 0.08517232 -0.14586592 -0.3267408 0.19412838 0.17717128 -0.34586072
0.029648436 0.03297383 -0.14092368 0.1507427 0.25575832 -0.29498696 0.065235734 0.093613446
0.110105895 -0.33326247 0.25965807 0.07509138 -0.16022299 0.26204094 -0.07307678 0.009475326
-0.3922748 -0.3838982 0.06823705 0.017221723 0.13522075 -0.1280681 -0.17863612 0.13916008

layers.4.bias f4 [40]
00000000: 72dd 893d 4e2b 4f3d a4fc 02bd 8e30 073c
00000010: c80b e53d 92f3 85bd 71f9 2fbe e617 303d
00000020: a2e0 b03c e944 12bd 3a8a c7bd 6f51 993d
00000030: e137 833d e0e0 b4bb 90d1 953e e223 b1bc
00000040: d253 83bc 5c38 8b3d 75cb 5abd 675f ecbd
00000050: bc47 f8bb e3c5 80bb aa20 903c 8221 a23c
00000060: 69b5 0cbe 1d56 bfbc 4f6e c33c 77f3 b03d
00000070: 9f07 74bd 2bf5 9f3d 2530 853c 8121 303d
00000080: 3785 473d 9f72 b53d fb2d ff3c dd14 263d
00000090: 57fe e9bc 9333 933d 5c9e 30bd ceab 08bd
0.067316905 0.050578408 -0.031979218 0.008251322 0.11183888 -0.06540598 -0.17184998 0.04299154
0.021591488 -0.03571025 -0.097431615 0.07486235 0.064071424 -0.0055199713 0.29261446 -0.021623556
-0.01603118 0.06797859 -0.053416688 -0.11541634 -0.007576911 -0.00392984 0.0175937 0.019791368
-0.13741077 -0.023356492 0.02385631 0.08640187 -0.05957758 0.07810434 0.016258309 0.0430007
0.048711028 0.08859753 0.031149855 0.04054724 -0.028563662 0.071875714 -0.043119773 -0.03336697

layers.6.weight f4 [40, 40]
00000000: 8712 10be bb5d 6bbe ef71 6a3d cd50 2bbe
00000010: a3f1 28bf 84df 48bd 0ca2 10bd e79b c2be
00000020: 0ad8 503d d144 79be 6b55 d73e 32ad 933e
00000030: bfa7 c6be 47b1 e33d ca7b 8abe bbba a7be
00000040: 832e 92be c495 ddbe 0b2a b13e b2a1 4d3e
00000050: e0af 743c 9b14 0fbc 259e 393d 787c aabd
00000060: 3e57 22bd be19 93bc 842a 6f3e 3488 3cbe
00000070: 8084 8bbe 1aac 13bf ca50 34be 8e6a 593d
00000080: 4c10 debe 2276 423e b108 d4bd 7cad 113f
00000090: 5c7f c63e fec4 e13b ecbb 47be 6021 a63e
000000a0: e00a fa3d 561b 623d 7e25 123d baf1 163e
000000b0: 3e6a 223e eb25 673e 3604 163e 0e36 38be
000000c0: 0093 e33d 5a3e 09be 500a d93b d3f4 773e
000000d0: a4ba f23d 6821 643d cab7 01bc df53 c13e
000000e0: ddc8 8f3e 6f4d 983e f2de 8b3c f463 ad3d
000000f0: b909 c0bd 52ce 13be 9672 8abc 1c41 673e
00000100: e4dd d53d d187 c23d 1e0e 703e 422c b6bd
00000110: 0d9f 773e d27c 8d3e 285f bd3d d27f 4cbd
00000120: e85d d3bd cb9a adbd 16c7 883e 4e01 173d
00000130: 7764 63be 3a40 3f3e 03b4 9abd e886 aebe
00000140: 6d26 533e 350c 6fbe 718a 083e 956a 98be
00000150: 7939 01be c060 983d c1fe 71bd c3c1 643e
00000160: 3953 29be 555a 963c 0e17 f53c 0f49 4c3c
00000170: 4176 0cbe cd6e 5b3d 1a54 0cbe fe54 18bd
00000180: 401f abbd 0f24 39be b40a 1ebe 50e6 ce3c
00000190: 4e7c 8f3d dc6c 18be 4505 3ebd dfa5 dfbd
000001a0: dd20 44be 5c7c 5f3e 170b b0bd ffea dd3d
000001b0: 39ba 9dbd 6ce1 70be 865f c5bd be3a 77be
000001c0: 1a80 803e 9ce7 8fbe 10d1 67bd 7b6b a43e
000001d0: cc19 853c 6c4d de3d 8f88 813e 0f04 17be
000001e0: 0c88 5a3d 10cd 9b3e 6cba 893e b7d3 6fbe
000001f0: 2877 45bd a8cc 463e 5a47 6ebe ffb4 d9bd
00000200: e0a9 973e 1f09 bc3e 2915 363e 479f d8bd
00000210: 8c75 a5bc d99c ccbd 5c09 ea3c 388d 6dbd
00000220: f132 a0be 5af3 f3bd 543d 1938 6a64 a33e
00000230: 3675 89be cb87 52bc 2937 f93d f17c 0cbe
00000240: 6b1f 66be fdbc 3b3e de16 39be b211 803e
00000250: 8174 6a3e 9e86 603e 5e8d 9abe 7a65 96bc
00000260: 556c 53be fe41 7d3e 6a6a ce3e d4ae cbbd
00000270: 5165 8c3e 3d90 df3d 3461 3d3d 4af9 4abd
00000280: 5e69 d6bd 4bd0 7cbe 27f2 2ebe 536a 153e
00000290: 1466 8ebe 6b0d 84bd c822 a7bd 4bb3 2fbe
000002a0: 82ed 1a3e 04c0 75be 0a05 b23d dc2a 2d3e
000002b0: dfaa cf3d 1602 c63e 2be2 debe e360 8abe
000002c0: 5e41 263d 588a 6fbe 38ae 133e cc3f a43e
000002d0: 6f54 42be 6ea6 8a3e 182f 8fbd afac 82be
000002e0: 119b 883e cb17 823d 447a b83c 107a bebe
000002f0: 0f0d 38be 9a8e 18be 11c0 c73d 2ddc 253e
00000300: fb2c 49bd 2d3f a3be 44b8 b9be c58d b33e
00000310: b045 773e 190c aebe 970d 933e 0513 c13c
00000320: 650e 303e 93e9 31bd 23cf c93e ea80 35be
00000330: f8b0 bebe 6e64 bf3b 6109 593e ac72 123e
00000340: 4d7a 7c3e b63f 253e e3db 9d3e a6df ce3e
00000350: d0ff 1d3e de9b 70be bc73 efbd 958e 383e
00000360: 5d18 d8bc ff53 a0be 91dd 0a3e e943 e13d
00000370: 364c c33d 858a 743e fc78 413d cd50 a4bc
00000380: f0d5 af3d c604 6fbe 9fb5 16be 8345 3abe
00000390: b7ee fabd b30c 8cbd c753 4ebe b35f 793e
000003a0: 70b7 cd3d 12a8 21bd 7351 583e 5d5b 903e
000003b0: 4214 f73d 6332 8fbd 2f63 a2bd b9c7 2b3e
000003c0: 91e2 06bf ea2f f23d 69c7 bcbd 4872 cabd
000003d0: 0c8e 7bbe b8cc d93e ba21 643e aada 6b3e
000003e0: 44f1 853e e88c a6bd 2d85 713e ef01 e23d
000003f0: 9ceb 29bd e070 db3e 610c 9a3d f817 3fbd
-0.14069568 -0.22984974 0.05723756 -0.16730042 -0.6599371 -0.049041286 -0.03531079 -0.3800957
0.05098728 -0.24342658 0.42057356 0.28843075 -0.38799855 0.11117797 -0.2704757 -0.32759652
-0.2855111 -0.43278325 0.3460239 0.20081213 0.01493451 -0.00873294 0.045316834 -0.08324522
-0.039633982 -0.01795661 0.23356062 -0.18411332 -0.27249527 -0.5768448 -0.17608944 0.053080134
-0.4337181 0.18990377 -0.1035322 0.5690534 0.38769042 0.0068899384 -0.1950528 0.32447338
0.122091055 0.05520185 0.035680287 0.14740649 0.1586084 0.22573058 0.14650044 -0.1798937
0.111120224 -0.13402691 0.006623544 0.24214487 0.11852005 0.05569592 -0.007917354 0.377593
0.28082934 0.29746577 0.017074082 0.0846633 -0.093768544 -0.14434174 -0.016900342 0.22583431
0.10442713 0.09498561 0.23442885 -0.0889516 0.24181767 0.27634293 0.09246665 -0.049926586
-0.103206456 -0.0847679 0.2671439 0.03686648 -0.22206293 0.18676844 -0.07553866 -0.340873
0.20620127 -0.233445 0.13334061 -0.29768816 -0.1261958 0.074403286 -0.059080843 0.22339539
-0.16535653 0.01835362 0.02991822 0.01246859 -0.13716985 0.053572465 -0.13703957 -0.03719043
-0.0835557 -0.18080162 -0.1543377 0.025256306 0.07006131 -0.14885277 -0.046391744 -0.10920309
-0.19153161 0.21824783 -0.08595865 0.108358376 -0.07701535 -0.23523492 -0.0963736 -0.24143502
0.25097734 -0.2810639 -0.056595862 0.3211325 0.016247652 0.10854611 0.25299498 -0.14747642
0.0533524 0.30429888 0.2690004 -0.23420607 -0.04820934 0.19414008 -0.23269406 -0.106302254
0.29621792 0.3672571 0.1778151 -0.10577255 -0.020197652 -0.09990854 0.028568916 -0.057996005
-0.31288865 -0.1191165 3.653516e-05 0.31912547 -0.26847237 -0.012849758 0.12168724 -0.13719536
-0.22472923 0.18333812 -0.1807513 0.250135 0.22896005 0.21926352 -0.3018598 -0.018358935
-0.20646794 0.24732205 0.40315562 -0.09945455 0.27421048 0.10916183 0.04623528 -0.049554147
-0.10469316 -0.24688832 -0.17084561 0.1459134 -0.27812254 -0.06447872 -0.08160931 -0.17158239
0.15129665 -0.2399903 0.086923674 0.16910881 0.10140013 0.38673466 -0.43531927 -0.27027044
0.040589683 -0.23392618 0.14421928 0.32079923 -0.18977521 0.270801 -0.06991404 -0.25522372
0.26680806 0.063521944 0.022519238 -0.372025 -0.17973731 -0.14898148 0.09753431 0.16197272
-0.049115162 -0.31884137 -0.36273396 0.350691 0.24147677 -0.33993605 0.28721306 0.02356864
0.17192991 -0.043435644 0.39415845 -0.17724958 -0.3724439 0.0058408296 0.21194984 0.14301556
0.24656029 0.16137585 0.30831823 0.40405005 0.15429616 -0.23496959 -0.116919965 0.1802314
-0.026378805 -0.31314084 0.13561083 0.10999281 0.095360205 0.23880966 0.04723452 -0.02005806
0.08585727 -0.23341665 -0.1471772 -0.18190579 -0.122525625 -0.0683836 -0.20149146 0.24352913
0.100447536 -0.039466925 0.2112482 0.28194705 0.12064411 -0.069920324 -0.07929074 0.16775407
-0.5268946 0.11825545 -0.09217722 -0.09885079 -0.24565905 0.42539 0.2227849 0.23032632
0.26160634 -0.081323445 0.23585959 0.11035525 -0.04148446 0.42859554 0.07521892 -0.046653718

layers.6.bias f4 [40]
00000000: 02ad f6bb ed11 88bc 6373 7b3c 151d 213d
00000010: 4e8f aabc 40c8 e53c eec6 0fbb 323d a33c
00000020: 35cc 753d d600 083e 418c 28bd 78c2 58bd
00000030: d1a9 eaba e2b5 9bbd 4882 143d 6145 3dbc
00000040: 9958 2d3e 0aeb fbbc 0b26 38bc acb1 07bc
00000050: 5c18 423d 1c2e 273d cff2 663d d1a3 833d
00000060: c280 0f3e 483d babc d176 bdbc 5209 923d
00000070: cd95 1fbd 16d0 3bbc 5042 58bc 6004 2dbc
00000080: 82c1 c8bd 9c0d 0ebd 4f2c e4bc 76fc a83c
00000090: cd57 2bbd 7e52 093e da8b 3d3d 616b f8bc
-0.0075279484 -0.01661011 0.015347335 0.039334375 -0.020820286 0.028049588 -0.002193864 0.019926641
0.0600092 0.13281569 -0.04114938 -0.052919835 -0.0017903392 -0.07603051 0.03625706 -0.011552186
0.16928329 -0.030751724 -0.011239539 -0.008282106 0.047386512 0.040815458 0.056383904 0.0642773
0.14013961 -0.0227343 -0.023127945 0.07130684 -0.03896122 -0.011463186 -0.013199404 -0.010560125
-0.09802534 -0.034680948 -0.02785316 0.020628195 -0.04183178 0.13410375 0.04627595 -0.03032464

layers.8.weight f4 [40, 40]
00000000: 4a2b 9dbe 4307 d23e 38a2 a1bd 573e 7fbe
00000010: b1bc 09be 68e7 4cbe 6d8c 45be 39f6 803e
00000020: 1bdc 3a3e 6679 00be 5dfb bdbe 85a4 12be
00000030: 2513 8fbe 610a efbe f4fd 863e a2b3 563e
00000040: f282 c5bc bdd2 b63e 142c 903e d95f d03d
00000050: 4118 bdbb 1196 95bc a0fb 0ebe c87d 51be
00000060: bf4b 5c3e b0fc 8fbc da3a 9abb fb22 10be
00000070: be57 afbd 0511 d33d d6b4 d83c 350b 2f3e
00000080: e396 2e3e 0006 4d3e ef7f 473e 5a49 d03d
00000090: 99e4 79bc 41aa da3d 40c9 ad3d 4a3d 033e
000000a0: 1c30 83bd 139c 50be 163e 293e 494c bb3e
000000b0: 977a 05be b624 8b3e cc6a af3e 205b 673d
000000c0: 8171 5abe 87d3 eebd a69f 3e3e 3dbf 8a3e
000000d0: af36 8a3d a520 b23d b766 893c 2d30 6fbe
000000e0: 9f37 013e 15f4 413e d816 5cbe 44d8 833e
000000f0: e55a a7bd 33ab c73d 7187 8fbd 8dd8 583e
00000100: d64c 813d 2d63 193e 17ef ac3e ef5b 4a3e
00000110: 4312 10be f02e 28be 5dab 9a3d b8cf 063d
00000120: 3972 31bd b0d9 1abe 4507 c43d e818 1b3d
00000130: 0a3f 583d 2682 96bc b68b cb3d fc75 73bd
00000140: b64a 89bd 623c 7bbc c775 fabd 8d44 6c3e
00000150: decc 583e 3599 0ebe 901d febc ede2 093e
00000160: 1280 47be b86b 193e 494a 29be d4aa a2bd
00000170: 05c7 3e3e 6dfd 8ebe a63c 2d3e b8a1 0ebe
00000180: 7d98 333d f6bf 853d 04f6 533d 93f0 9abd
00000190: 6023 96bd 964a 493d 80ae 023e 6d22 e5bd
000001a0: 955f eabd 2e82 23be 7545 123e 1230 653e
000001b0: 789f bc3d 29be 103e 58e7 853d 0fc4 aabd
000001c0: 6e11 54bc 6940 4c3d e7f0 9d3e b999 8d3e
000001d0: 5438 803e 6ca6 13bd da99 53bd 29a1 0d3b
000001e0: 8834 7f3c a755 bcbc ef2d 83bd 1482 6a3e
000001f0: d4d9 3a3e faaa 303e 56fb ee3d 1760 853e
00000200: da12 a7bd 5953 c03e c9ad c03e 9814 573e
00000210: 78d7 993e fcb4 1b3e 3670 2f3d a4a8 773f
00000220: 21fa f4bd 0fa8 b4be 237f c6be 9b98 8fbe
00000230: 80f0 6fbe d752 2d3d 8f2d 913e e582 3b3e
00000240: a6f1 7a3d eb3b 6e3d 7fbf 20be 9d22 2c3d
00000250: 6767 8e3c 0947 943c 9531 1a3e c20a e5bd
00000260: b699 933d 7520 623d a200 3cbf 4ebb 943d
00000270: e1d5 123e 81e0 ed3d bbc5 99bd 7503 e13d
00000280: 6b11 a7bd d1b2 66bd 4278 e33d 10ed 593e
00000290: 1d70 2c3d 5a9f 89bd 7309 44b9 b608 823d
000002a0: 3079 39be 5283 263e 6b51 05be 6bac ad3d
000002b0: c36a 80be 4ecf 0a3e 3502 e2bc 6b47 f8bd
000002c0: cfc3 4cbe c30f 44be 3d90 12be 51f3 27be
000002d0: 8798 11bc 944f 0b3e e8d2 3bbe 9ad5 3a3d
000002e0: 9e7a 0d3d 7cae 663e b2c3 8a3e def1 bdbc
000002f0: 2c7f 83bd 047b 86bd 058b a9bd 42d1 7f3e
00000300: daa2 39bd c8e2 9abd d72e 9c3d 7d7f 2b3e
00000310: a4d3 8e3e cca1 3f3c f431 96be 7e4a 483e
00000320: 5c83 c8bd 33f0 86be 15b7 70be f733 9d3d
00000330: 624e 8cbd 92c5 e8bd cf7e 3ebe bc9f 153e
00000340: ec06 0c3e 4ddb eb3e 5063 813c b769 9e3d
00000350: 8e78 52bc 087b b5bd 209d 423e 6996 72bd
00000360: 0dee 36be 27e8 99be 9cd2 f1be 8c56 a6be
00000370: 143f a13c 6478 e73e 62e4 833e 6c97 6b3e
00000380: 8f6a 823e f2e0 803c efc9 9cbe 0264 1bbe
00000390: 2fc3 a4be 8c25 65be 767c 4abe 261e 6abe
000003a0: 90e3 23be 05e8 a63e 2e90 e23d 35f8 c3bd
000003b0: 667f 9ebc 316a e43e 607b a13d 9d77 2fbe
000003c0: 85d8 3bbf 331b dd3d 2aad 71be a7b0 aebd
000003d0: 550e e4bc 89da 8bbe 9447 6e3e ae3b 173f
000003e0: cf27 b7be e9e9 11bd 2bcc afbd aede 12be
000003f0: cbd8 ec3e 9a80 0a3b d5d2 f5bd 961b b33e
-0.3069709 0.41021165 -0.07892269 -0.24926125 -0.13450886 -0.2001015 -0.1929185 0.25187853
0.18248026 -0.1254631 -0.37105837 -0.14320572 -0.27944294 -0.46687606 0.26365626 0.20966962
-0.024110291 0.35707656 0.2815863 0.101745315 -0.0057707136 -0.018260034 -0.13963175 -0.20458138
0.2151327 -0.017576545 -0.0047067227 -0.14075844 -0.08561657 0.103059806 0.026453417 0.17094119
0.17049746 0.2002182 0.19482397 0.10170241 -0.015252256 0.106770046 0.08485651 0.12816349
-0.064056605 -0.20372038 0.1652759 0.36581638 -0.13035046 0.27176446 0.34261167 0.056483388
-0.21332361 -0.116614394 0.18615589 0.27099028 0.06748711 0.08697633 0.016772611 -0.23358221
0.12618874 0.18940766 -0.21493089 0.25750935 -0.08171634 0.097494505 -0.07008255 0.21176358
0.063134834 0.14979239 0.3377616 0.19761632 -0.14069466 -0.16424155 0.07552216 0.03291294
-0.04332182 -0.15122104 0.09571699 0.03786555 0.052794494 -0.018372606 0.09938757 -0.05943869
-0.06703703 -0.015334221 -0.122294955 0.23073025 0.211719 -0.13925631 -0.031019956 0.13465472
-0.19482449 0.14982498 -0.16532244 -0.07942739 0.18630607 -0.27927724 0.16917667 -0.13928878
0.043846596 0.06530754 0.05174829 -0.07565417 -0.07330966 0.049143396 0.12761879 -0.11188207
-0.11444012 -0.15967628 0.14284308 0.22381619 0.09210104 0.1413504 0.06538266 -0.083381765
-0.012943609 0.049866114 0.30847856 0.27656344 0.25042975 -0.036047384 -0.051660396 0.0021610952
0.015576489 -0.022990061 -0.064052455 0.22901183 0.18247157 0.17252722 0.11669032 0.26049873
-0.081578925 0.3756359 0.37632588 0.2100395 0.30047202 0.15205759 0.042831622 0.967417
-0.11961771 -0.3528447 -0.38768873 -0.28046116 -0.23431587 0.04231533 0.2835507 0.18311651
0.06126561 0.05816261 -0.1569805 0.042025197 0.01738329 0.018100278 0.15057977 -0.111836925
0.072070524 0.055206735 -0.73438466 0.07262288 0.14339401 0.11615086 -0.07508417 0.109869875
-0.08157619 -0.056322876 0.11106922 0.21281838 0.042099107 -0.06719847 -0.00018695537 0.06349318
-0.18112636 0.16261032 -0.1301934 0.08480152 -0.25081453 0.13555643 -0.027588943 -0.12122997
-0.1999657 -0.19146638 -0.14312835 -0.16401412 -0.008886463 0.13604575 -0.18342173 0.045613863
0.034540765 0.22527498 0.2710243 -0.02318662 -0.064207405 -0.06566432 -0.08278469 0.2498217
-0.045321323 -0.07562786 0.076261215 0.16747852 0.27895844 0.01169629 -0.29334986 0.19559667
-0.0979068 -0.26355132 -0.2350734 0.07675927 -0.06850888 -0.113658085 -0.18603061 0.14611715
0.13674515 0.4606575 0.015794426 0.07735007 -0.012846125 -0.08861357 0.19005251 -0.059225474
-0.17864247 -0.3005993 -0.47230995 -0.32487905 0.019683398 0.45209038 0.2576018 0.23006982
0.25471923 0.015732262 -0.30622813 -0.15174869 -0.32180163 -0.22377604 -0.1977404 -0.22863063
-0.16004777 0.32598892 0.11062656 -0.09568826 -0.019347858 0.44612268 0.0788486 -0.17135473
-0.7337726 0.107962035 -0.23601213 -0.085297875 -0.027838865 -0.27315167 0.23269492 0.5907544
-0.3577256 -0.035623465 -0.08583864 -0.14342758 0.4625915 0.0021133781 -0.12003104 0.34981984

layers.8.bias f4 [40]
00000000: ce67 14bd 628d f6bc 6d62 443c 4a96 c43c
00000010: 32d5 30bd 7723 0c3d 1bef 7dbd 45c2 e1bb
00000020: 636e 42bb 5be1 46bd 8dfd a0bc c5b8 16bb
00000030: 7fc8 983a 5755 46bd 4bc1 023c c8f9 39bd
00000040: 236e 20bb 3e9c 8f3d 333e 4c3d 119e 2d3d
00000050: 6c7e ee3d b29b 06bd 29ce 41bd a0a2 943c
00000060: 269c 443b 5fda d1bc f0a0 193d 66d0 313d
00000070: dd78 ab3d 1010 25bd ce70 02bd 6ae8 1cbd
00000080: 3d81 0b3d 34f5 9d3c b3b2 b93c 064f f83c
00000090: 08c5 72bc e34c 043d 6087 d93c fa5b de3c
-0.03623181 -0.030096713 0.011986357 0.023997445 -0.04317207 0.03421351 -0.061995607 -0.006889614
-0.0029667846 -0.04855476 -0.019652152 -0.0022998315 0.0011656432 -0.04842123 0.007980655 -0.045404226
-0.002447971 0.07012223 0.049864005 0.042387072 0.11645207 -0.032863326 -0.04731575 0.018143952
0.0030000298 -0.025616823 0.037506998 0.043411635 0.08372662 -0.04029852 -0.03184586 -0.038307585
0.034058798 0.019281961 0.022668218 0.030311119 -0.014817484 0.032299887 0.02655381 0.027143467

layers.10.weight f4 [40, 40]
00000000: 74ef bdbd 3405 29be 0519 f0bd 9476 8f3e
00000010: 43e2 96bd 6c89 603e ce11 b13e d426 9ebe
00000020: 0a62 653d 4b73 c6bd b17b 57be 2071 143e
00000030: 891f acbc c993 1c3e e093 083e fb00 80be
00000040: 65c0 4b3e 10f6 1d3e e250 513e ccc2 643d
00000050: 725d 663e c877 61be 3e12 80be 3153 523e
00000060: 7cf5 6abe f750 8c3d 3c9c afbe 1844 6b3e
00000070: 56b2 79be 72ba dcbd 36ea 173d 9a65 bbbd
00000080: adfe 50be e21f 81be 9453 2abe 0854 44be
00000090: c8a0 8cbd 914e 4cbe 36ee 39be 0a2f e03c
000000a0: af94 963e cc3a 96bd 4901 953d f07f 21bf
000000b0: c36f 76be 7e2d b93c 20ab 9abd aead 49be
000000c0: 3556 943d fce3 e33d 66ce 39bd 6948 0bbe
000000d0: f19f 58be 1f59 c53e 9e0b fabe 98a9 473e
000000e0: 9e6d 05be 8f04 023f 4bfd 2cbd af69 14be
000000f0: 1cf3 cd3b effd eb3e 1c5e 873e 0234 a5be
00000100: 306c e1bd cf9b 333e 704d 82be 94b2 603d
00000110: b9bd 12bd b6a5 eabc 2c6f b93e da6f 813e
00000120: 1d66 cc3d c9e1 113f c734 1bbe 4df6 5bbe
00000130: 87f5 7f3e 0c52 243e d8c9 103e 9882 a7bd
00000140: c32d a33e 712f 0e3e 89ea 58bd c95a e93d
00000150: d116 493e fa7d 5bbe d0d0 a33e 7ed9 293e
00000160: e498 75be aec2 3abe c60d 65bd 360f 953c
00000170: 90bf db3d 7241 8fbd acad 5cbe 6e38 353e
00000180: bd69 e6bc e198 ba3e 5191 17bd 9683 3f3e
00000190: 5c81 5e3e 0bd7 53be 1496 cebd 6450 d1bd
000001a0: bb2d 69be 31c3 b3be 96da bcbe f391 97be
000001b0: b5d8 2ebe a1f9 c53d dfe6 a0bd 8e49 c9be
000001c0: 68a7 e2bd 0a07 03be db02 1fbe f58b 433e
000001d0: 165a 5b3d 0c47 2b3e 498f 5b3d d851 ebbd
000001e0: e5dc d7be 0203 943d 94b5 41bd b51d 703e
000001f0: 4b76 11be 7c94 47bd 217f 093e c2ee 103d
00000200: d44b 7cbe dbb1 113e 57a8 613d aeb9 903e
00000210: dc43 6fbe 43f6 0a3e a948 403e c2a3 333d
00000220: 39cc 5cbe 20ff c5be f292 fabe 5476 173c
00000230: ec28 08be a99e b13d 1020 183d aa27 55be
00000240: 3e32 5b3e 68ae 11bd e431 873d fff2 37be
00000250: 3f5b 6dbd 2e6a 3cbe a1ce 52be 1d35 c03e
00000260: 49f0 d33c 04af 29be 04b3 9ebe 79b6 f6bd
00000270: 5d40 2fbe 2aa5 d93d 7d4d d33d 0fd2 233d
00000280: 1c87 01be 125d 59bc 74d2 73be 3d7a 203e
00000290: 96c7 143e 1c2f 773c 77a2 8fbe 0464 a93e
000002a0: 2d91 81bd f77b 4b3e aa44 af3e 0650 d9bc
000002b0: 9b11 0fbe 039b 83bd c359 a53d 737e 783a
000002c0: eeb4 933e 5a28 61be a895 39bd ea26 45bd
000002d0: 6849 73be a631 6ebe 03bf c03e 6892 afbc
000002e0: 0cdc db3d 6b80 df3b 201d 1a3e 6499 35be
000002f0: 67d8 063e 36bd 5cbe 759d 4ebe 9ee3 db3d
00000300: 0352 a8be 0d25 a9bd e8f7 263d 7bc2 e0bd
00000310: bbe1 bcbe ed75 ff3c e432 46be f7c4 88bd
00000320: c2f6 75bd 823f b0be bc98 553d 1df6 4ebe
00000330: a1ff d0bd 31aa 593e 3617 88bd 255b f03d
00000340: 0fd2 fdbc b3fb 5cbe 1245 c53d 5516 553e
00000350: 3aad eebd bf7a dbbd c1f8 0b3e bba5 8d3e
00000360: d903 483e 61ae e33e d9e9 dbbd d682 39be
00000370: 055e fa3d 2bac 983e 29d3 97bd 88d1 66be
00000380: 4728 a1be 91c1 9abe 8e58 603e 7198 c13d
00000390: f266 85be f6a6 b5bc 7a7a 43bd fe5a 8d3e
000003a0: fde6 563d 2cc7 9d3e eaa9 96be 2bb2 633e
000003b0: 3cf2 293d 9cb6 7cbd 2efa 4cbd cf1d fd3d
000003c0: b46a aabe e14c 983e 1883 a33e bf63 8cbe
000003d0: c9ec 4b3d 4f6c 26be 97c8 3d3e b9a0 473d
000003e0: aeee 803d e5ba 683e 9423 163e 2ce3 b2bd
000003f0: e17d 38be 3a86 de3d 5d87 2b3d a223 95bb
-0.09274188 -0.16505891 -0.11723522 0.28020155 -0.07367375 0.21927422 0.34583896 -0.30888999
0.0560017 -0.09689959 -0.21043278 0.14496279 -0.02101113 0.1529075 0.1333766 -0.25000748
0.19897611 0.15425897 0.2044101 0.055849835 0.22496584 -0.22018349 -0.25013918 0.20539548
-0.22945207 0.0685138 -0.34298885 0.22975194 -0.24384436 -0.10777749 0.037088595 -0.09150238
-0.20409651 -0.25219637 -0.16633445 -0.1917268 -0.06866604 -0.19951846 -0.18157277 0.02736618
0.29410312 -0.07335433 0.07275636 -0.6308584 -0.24066071 0.0226047 -0.07552171 -0.1969516
0.07243005 0.11127469 -0.045362853 -0.13601841 -0.21154763 0.38544556 -0.48836988 0.19498289
-0.13030097 0.50788206 -0.042233746 -0.1449344 0.0062850844 0.46092173 0.26438987 -0.3226624
-0.11006963 0.17539905 -0.25449705 0.054857805 -0.035825465 -0.02864347 0.3621763 0.25280648
0.09980414 0.56985146 -0.15156852 -0.21480675 0.24996005 0.16046923 0.14139497 -0.08179206
0.3187085 0.13885285 -0.052958045 0.11394269 0.1963761 -0.21434775 0.3199525 0.16586873
-0.23984104 -0.18238327 -0.05592134 0.01819573 0.10729897 -0.069949046 -0.21550626 0.17697307
-0.028126592 0.36444762 -0.03700382 0.1870254 0.21729034 -0.20687501 -0.10087219 -0.102204114
-0.22771351 -0.35109857 -0.36885518 -0.29603538 -0.17074855 0.096667536 -0.07856535 -0.3931393
-0.110670865 -0.12795654 -0.15528433 0.19096358 0.05355271 0.16726321 0.053603444 -0.1149022
-0.42160717 0.07227136 -0.047292307 0.23448832 -0.14205281 -0.04872559 0.13427402 0.035383947
-0.24638301 0.14228003 0.055092182 0.28266662 -0.2336573 0.13570504 0.18777718 0.043857343
-0.2156228 -0.38671207 -0.48940235 0.00924452 -0.1329686 0.0867284 0.037139952 -0.20815912
0.21405885 -0.035566717 0.06601313 -0.1796379 -0.057948347 -0.1839988 -0.20586635 0.37540522
0.025871413 -0.1657067 -0.30995953 -0.12046523 -0.17114396 0.10627206 0.10317514 0.03999525
-0.12649196 -0.013266819 -0.2381075 0.1567163 0.14529261 0.015086915 -0.28053638 0.33084118
-0.06326518 0.19871508 0.34232074 -0.026527416 -0.1397156 -0.064260505 0.08073761 0.00094792916
0.28848976 -0.21988049 -0.04530874 -0.048132814 -0.23758471 -0.23261127 0.3764573 -0.021432117
0.1073533 0.0068207285 0.15050173 -0.17734295 0.13168488 -0.21556553 -0.20177253 0.10736774
-0.3287507 -0.0825902 0.040763766 -0.10974594 -0.3689097 0.031184161 -0.1935535 -0.06678193
-0.06004978 -0.34423453 0.052147612 -0.20211072 -0.10205007 0.21256329 -0.06645052 0.117361344
-0.030983953 -0.2158039 0.09632315 0.208093 -0.11654134 -0.10716771 0.13669111 0.27665505
0.19532718 0.44468978 -0.10737962 -0.18116316 0.12224964 0.29818854 -0.074133225 -0.22540867
-0.31476042 -0.30225804 0.21908781 0.09452904 -0.26055104 -0.02217434 -0.047724225 0.27608484
0.05246638 0.3081602 -0.2942651 0.22235934 0.04149078 -0.061697587 -0.050043277 0.12359201
-0.33284533 0.29746154 0.31935954 -0.2741985 0.049786363 -0.16252254 0.1853355 0.04873726
0.062955245 0.22727545 0.1466201 -0.08734736 -0.18016769 0.108654454 0.04187714 -0.004551367

layers.10.bias f4 [40]
00000000: 4644 e9bc cd88 6abd 503b e3bc 8db7 08bc
00000010: 6905 c0bc 7b44 313d 4ac8 a4bc 1b7d 00bd
00000020: 063f cabc 440e 073c 3f78 133b db88 c23b
00000030: 43a7 043d 2cfb f73c 03a6 b4bc 3acc 483d
00000040: 4aba 693d a7f7 10bd a880 8fbd 7ef5 b43a
00000050: e75a 493d f450 e3bb 46a1 073c 66ab aa3c
00000060: 74a9 3e3b 5527 08bc 5ead c1bd 036a 153d
00000070: 8d04 1fbe 48fc 15bb ba03 2fbe e35f ffbc
00000080: 024a f4bd 7bea 013d e39d 02bd a6a6 3f3c
00000090: fe84 a5ba 7d3a 2fbd 3080 233c d092 f8bc
-0.028474938 -0.05725937 -0.027738243 -0.008344543 -0.02344008 0.0432782 -0.020115037 -0.03136931
-0.024688255 0.008243147 0.0022502092 0.0059367246 0.032386076 0.030271135 -0.022051817 0.04902289
0.057062425 -0.03539243 -0.07006961 0.0013806073 0.049158957 -0.0069371406 0.008278197 0.020833682
0.00290927 -0.008310159 -0.09456895 0.036478054 -0.1552908 -0.0022885967 -0.17091265 -0.031173652
-0.11928178 0.03171776 -0.031888854 0.011697447 -0.0012628136 -0.04278039 0.009979293 -0.030343443

layers.12.weight f4 [40, 40]
00000000: a3cf 3c3e b492 ed3b 76a3 72bd e77a 0c3f
00000010: 352b 8abe 487b 1a3e 6502 d73c 4a30 2b3e
00000020: 6ca6 f03d 3784 dc3e 0c59 573e 0a0f 753e
00000030: c0b3 a8be 3089 c23c bed1 e23e 2369 b5bd
00000040: a059 093e 9038 b6bd de5a d83d 0ae7 f13d
00000050: f52e b33e 095c 973d 97df 7cbe 3dc6 2dbe
00000060: 74ed 5bbe 1dfe 53be a752 1ebe f596 03be
00000070: d7d2 273e 89b4 52be 810d 893e f5fe e5bc
00000080: 718e 9c3e acdb 19be 792b c3bd 34ba 423e
00000090: 90ed b33c ce70 3bbe 3ead 13bd f28c 36be
000000a0: db90 eb3e 4f21 a8be 3592 b73d 4aa0 503e
000000b0: 9dc7 16be 9453 2ebe 2d47 38be 377f b93e
000000c0: c6a1 483e 0d59 01bf 5706 9b3e e214 063c
000000d0: e0ae 3d3c d720 9b3d 4d36 583d 64a6 e2bd
000000e0: 2229 ad3d 1afc bcbe a9b6 ab3d 6ec2 bebd
000000f0: 63ed cc3d f5d6 d3be 45bb 703e e322 fcbd
00000100: 910d 7bbe 4201 c83d 177b 94be 562d 79bb
00000110: 98dd 28be f888 64bd c7ab 27be 479c 873e
00000120: 9bcd 8a3e d3a0 ad3c 341a c13c 272c 103e
00000130: e2fa c53d a6e2 8ebe f0e0 8fbd d251 343d
00000140: 4489 64bd 3558 bd3e b03a d83e 217a 57be
00000150: 5b3e 9abd bed8 45bd 5185 2cbd 10a3 cfbe
00000160: 88f6 4bbd 628f 5c3d a276 3c3e 2bd0 eebc
00000170: caf7 113e fcca 1b3d 720f 14bd 40ff 0bbe
00000180: 425b ae3d 268e e03e 9cd4 bd3d f8eb 5dbe
00000190: 1313 6c3e 6eb1 e63c d467 54be 79f6 9abd
000001a0: d5e6 413e 186b dd3d 7b24 243e fc7d b0be
000001b0: 6440 76bd e0cb d8bd fe4b 9abd ad2c 793e
000001c0: ac08 943d e6bf 7bbe b4a4 393e 4116 82be
000001d0: 7d4e f4bd 3455 95be f915 16be a216 d3bd
000001e0: c2f1 223e d1bb 403e bca9 b53e f332 9dbd
000001f0: f8bb 8d3d a1d8 c7be 368d a23d 26e0 113e
00000200: 86e4 7c3e 791c 8a3c 8dd2 f93d ad48 0ebe
00000210: 9d5d 86be af9a 09bd 40f1 0e3d a796 c13d
00000220: d23d 53be 10c7 febb f26b 95bc 055f 35be
00000230: 0a45 8abd 655a a9be 4c77 60bd bf4c 66bd
00000240: bf8d c6bd 5891 6c3e 52ff ebbd 6cba 593e
00000250: cbeb 293e 3349 b4bc f90f 6fbe 23ce cc3d
00000260: 8ad5 553e 6a92 b73e 01fb 28be ddf4 47bd
00000270: 59dd 7fbe 7dd8 4b3d 9bd9 5ebd a310 093e
00000280: 12f9 70bc 55ad dbbe 9a8e 15be b8ce 90be
00000290: d139 283e 2a6e 71bc b1ad 7abe cb64 57be
000002a0: dafa 2a3d 35a0 99be 2e93 793e 5803 f33d
000002b0: d42f 803c dba6 a83e 1a1f aabb 6065 f6bd
000002c0: e186 523e 2a91 09be 3c7d 473e 2b78 353d
000002d0: ec64 393e 1ab8 9b3e 7657 42be 10d0 df3d
000002e0: 9772 3bbd 98e6 95be 8af4 10be 54e6 7b3e
000002f0: c13d 83be e6a9 f7bd a515 4dbe f2a0 b93d
00000300: 27f6 933e fa1f 02be 4b61 f03b f0e6 a9bc
00000310: bba4 e53d af0f e63c d2cc 843e c181 25bd
00000320: 8f22 82be dfb6 2cbe 03a3 123e caae 543d
00000330: 8a29 bd3d 76ea 40bc 075e 1a3e aa6a 5abd
00000340: 2ea8 983e 44d0 babe 55a2 033e bfaa bebe
00000350: 2e8b 61be 57b7 47be 9ced d13d b5b0 893d
00000360: 50c6 cabe af08 bd3e feaa 723d 1e50 733e
00000370: 3ee3 1d3e 9b59 423e e1c3 81be 71eb c93c
00000380: d833 9d3e 83e2 433e d683 f3bd d2f2 a73e
00000390: 2bd9 3cbe 801e 8e3d b490 043e 1751 9a3e
000003a0: b38c 9e3b e6d2 7fbd 0888 7dbd 8bfd 9cbd
000003b0: eeae 013e 6143 ac39 56fb babe c850 033d
000003c0: 4b34 6a3e 47ee 973e a965 7abd fe6b 8dbe
000003d0: f5ed 21be 48bf 0f3e e918 6abe af98 943d
000003e0: 62ca 96bd 1551 2cbe 9d1b 3c3e 94a4 ad3e
000003f0: c5fc 75bd 6bc3 6f3e c199 263d f7fe f6bd
0.18438582 0.0072501544 -0.05923792 0.54875034 -0.2698609 0.1508609 0.026246259 0.1671764
0.117504925 0.43069622 0.21030062 0.23931518 -0.32949638 0.023747057 0.44300646 -0.08857944
0.13413095 -0.08897507 0.105642065 0.11811645 0.34996763 0.07390601 -0.24694668 -0.16970153
-0.214773 -0.20702405 -0.15461217 -0.12850554 0.16389023 -0.20576681 0.26768115 -0.028075675
0.30577424 -0.15025204 -0.09529776 0.19016343 0.021963865 -0.1830475 -0.03605389 -0.17827204
0.46008953 -0.32837912 0.08963434 0.20373645 -0.14724584 -0.1702407 -0.17995901 0.3622987
0.19592962 -0.50526506 0.30278274 0.00818369 0.011577338 0.07574623 0.05278616 -0.11066893
0.08455111 -0.36911088 0.08384449 -0.09314428 0.100062154 -0.41374937 0.23508938 -0.123113416
-0.24516894 0.09765865 -0.2900016 -0.0038021407 -0.16490781 -0.055794686 -0.16374122 0.26486418
0.2710999 0.021194851 0.023572065 0.14079343 0.09666993 -0.27907294 -0.07025325 0.044023342
-0.05579497 0.3698136 0.42232275 -0.21042682 -0.075314246 -0.048302405 -0.042119328 -0.40554094
-0.049795657 0.053847678 0.1840463 -0.029151997 0.1425468 0.038035378 -0.036147542 -0.13671589
0.085135 0.4385845 0.09269068 -0.21672046 0.23054151 0.028160777 -0.20742732 -0.07566542
0.18935712 0.10811442 0.16029541 -0.34471118 -0.06012 -0.10585761 -0.075340256 0.24333449
0.072282165 -0.24584922 0.18129236 -0.25407603 -0.11929033 -0.29166567 -0.1465682 -0.10307051
0.15912536 0.18821646 0.3548106 -0.076757334 0.06920618 -0.39032462 0.0793709 0.14245662
0.2469655 0.01685928 0.121983625 -0.13894911 -0.26243296 -0.033594783 0.034898043 0.09452563
-0.20629051 -0.007775195 -0.018239949 -0.17712028 -0.067514494 -0.33076778 -0.05480127 -0.056225535
-0.09695005 0.23102319 -0.11523308 0.2126252 0.16593854 -0.02200756 -0.23345937 0.10000255
0.2088224 0.35853893 -0.16502 -0.048817504 -0.24986781 0.049767006 -0.054406743 0.13385253
-0.0147078205 -0.4290568 -0.1460518 -0.28282714 0.16428305 -0.014735738 -0.2448032 -0.21034543
0.041743137 -0.3000504 0.24372551 0.11865872 0.015647806 0.329398 -0.005191696 -0.120310545
0.20559265 -0.13434282 0.19481367 0.044304054 0.18104905 0.30413896 -0.18978676 0.10928357
-0.04576358 -0.29277492 -0.14155784 0.24599582 -0.25633052 -0.120929524 -0.20027788 0.09063901
0.28898737 -0.1270751 0.007335817 -0.020740002 0.112130605 0.02808365 0.25937515 -0.040406946
-0.2541699 -0.16866635 0.14319997 0.051924504 0.092364386 -0.01177465 0.15074931 -0.05332438
0.2981581 -0.3648702 0.12854894 -0.37239644 -0.22025749 -0.19503532 0.102503985 0.06723157
-0.39604425 0.36920688 0.059245102 0.23761031 0.15418717 0.18979494 -0.25344756 0.0246484
0.30703616 0.19129376 -0.1189038 0.32802445 -0.18442218 0.06939411 0.12945825 0.30139992
0.00483855 -0.062456988 -0.061897308 -0.07665547 0.12664387 0.00032856598 -0.3651988 0.03205946
0.2287151 0.2967398 -0.061132107 -0.27621454 -0.1581343 0.14037812 -0.22861065 0.072556846
-0.0736282 -0.16827805 0.18369909 0.33914626 -0.060055513 0.2341439 0.040673975 -0.120603494

layers.12.bias f4 [40]
00000000: a1d4 b9bc 7ec9 c63c d357 39bd 86c8 d93c
00000010: 7a72 be3c 873d f8bb b777 9bbc 78b2 3a3d
00000020: 9424 8abd 0c46 a13d 1319 34bd fc16 743d
00000030: 828a a83d 6a76 4f3d 4151 a2bd 7251 9eb8
00000040: 2289 3bbd 80e3 b43c accd 2ebd 8675 f53b
00000050: 2d00 27bc 7de8 8dbd 2939 adbc 6ce7 20bd
00000060: f625 0bbd af76 c1ba 5392 f0bb 9521 52bc
00000070: 7376 393d db1e 20be 7e18 00bd 1af8 17bd
00000080: 8a59 27be e666 c73a adf1 83bc 7720 28bd
00000090: 1b96 f7bb 7a94 9abc 5ad2 3abd 8e6f cbbc
-0.022684397 0.024266 -0.04524977 0.026584875 0.023247946 -0.007575694 -0.018977983 0.045580357
-0.06745258 0.078746885 -0.043969225 0.059592232 0.08229543 0.050650038 -0.07925654 -7.5491975e-05
-0.045785077 0.022081137 -0.042676613 0.0074908165 -0.010192913 -0.06929109 -0.02114542 -0.0392832
-0.03397175 -0.0014760102 -0.007341662 -0.012825389 0.045278978 -0.1563677 -0.031273358 -0.037101842
-0.1634275 0.0015213161 -0.01610645 -0.041046586 -0.0075557358 -0.018869627 -0.045610763 -0.024833467
